…
WARNING:tensorflow:From /home/akshat/Documents/Github/homo_env/lib/python3.10/site-packages/tensorflow/python/ops/nn_ops.py:5219: tensor_shape_from_node_def_name (from tensorflow.python.framework.graph_util_impl) is deprecated and will be removed in a future version.
Instructions for updating:
Use `tf.compat.v1.graph_util.tensor_shape_from_node_def_name`
Before datagen..
Found 2800 images belonging to 2 classes.
Datagen completed..
Found 800 images belonging to 2 classes.
Data Generation Completed
Model: "sequential"
_________________________________________________________________
 Layer (type)                Output Shape              Param #
=================================================================
 conv2d (Conv2D)             (None, 252, 252, 32)      2432
 max_pooling2d (MaxPooling2D  (None, 126, 126, 32)     0
 )
 batch_normalization (BatchN  (None, 126, 126, 32)     128
 ormalization)
 conv2d_1 (Conv2D)           (None, 124, 124, 64)      18496
 max_pooling2d_1 (MaxPooling  (None, 62, 62, 64)       0
 2D)
 batch_normalization_1 (Batc  (None, 62, 62, 64)       256
 hNormalization)
 conv2d_2 (Conv2D)           (None, 60, 60, 64)        36928
 max_pooling2d_2 (MaxPooling  (None, 30, 30, 64)       0
 2D)
 conv2d_3 (Conv2D)           (None, 28, 28, 128)       73856
 max_pooling2d_3 (MaxPooling  (None, 14, 14, 128)      0
 2D)
 flatten (Flatten)           (None, 25088)             0
 dense (Dense)               (None, 128)               3211392
 dense_1 (Dense)             (None, 1)                 129
=================================================================
Total params: 3,343,617
Trainable params: 3,343,425
Non-trainable params: 192
_________________________________________________________________


50/50 [==============================] - ETA: 0s - loss: 1.3056 - acc: 0.3800
WARNING:absl:Found untraced functions such as _jit_compiled_convolution_op, _jit_compiled_convolution_op, _jit_compiled_convolution_op, _jit_compiled_convolution_op while saving (showing 4 of 4). These functions will not be directly callable after loading.
…
